gbmi/exp_indhead/term_test.pt (torch, 36878 bytes, 16 tensors)

l_b f4 [500]
59.529545 59.141655 55.8828 52.385273 49.80766 46.93406 45.71775 44.10702
42.200302 40.349503 38.567196 36.631172 35.09374 33.76899 32.580734 31.291258
30.004839 28.802425 27.625536 26.565676 25.50232 24.467337 23.550709 22.52259
21.610435 20.744108 19.80249 18.949347 18.129414 17.35851 16.603464 15.95464
15.349576 14.861392 14.30059 13.743113 13.316212 12.889939 12.578349 12.261009
11.99576 11.673298 11.368457 11.06385 10.816641 10.601406 10.293141 10.025728
9.783725 9.553338 9.380032 9.212056 9.017158 8.830323 8.676354 8.508884
8.333918 8.19955 8.078111 7.932721 7.780355 7.673326 7.5371375 7.4105263
7.2823224 7.150372 7.0541706 6.9566164 6.8677654 6.7670636 6.6638756 6.5663557
6.486234 6.406392 6.329178 6.2443047 6.1661396 6.091643 6.016596 5.9488716
5.882706 5.8176904 5.7527757 5.6912084 5.6288238 5.569518 5.5127935 5.459461
5.406054 5.3563056 5.3025646 5.2542562 5.206381 5.159966 5.112269 5.067149
5.0233297 4.979661 4.9385934 4.897535 4.8585 4.819784 4.7816343 4.74502
4.709626 4.6738663 4.639314 4.6058364 4.5730696 4.541121 4.5097904 4.4791007
4.4500575 4.42135 4.3921285 4.364173 4.3379707 4.311665 4.2856956 4.2602434
4.2345996 4.2104893 4.1868014 4.1637845 4.1406975 4.1187057 4.097261 4.075453
4.0542693 4.0339813 4.014017 3.9948483 3.975718 3.9574153 3.9396665 3.9224935
3.905483 3.8886514 3.8720026 3.8554385 3.8394587 3.823743 3.8080661 3.793314
3.7788622 3.7646108 3.7504835 3.7367895 3.7241833 3.7109935 3.6988714 3.6861565
3.6749632 3.6626027 3.6516426 3.6408117 3.6306436 3.6204064 3.6102335 3.600853
3.5902133 3.5812018 3.5716732 3.5624917 3.55374 3.54461 3.5361147 3.5277245
3.5192125 3.5103936 3.5028532 3.495269 3.4873917 3.4804387 3.473562 3.4666703
3.4602575 3.4537926 3.4481864 3.4416733 3.4361067 3.4307778 3.42531 3.419447
3.414298 3.4092062 3.4042342 3.3994093 3.3953388 3.3911889 3.3872092 3.3831894
3.3796115 3.3759215 3.3723063 3.368977 3.3658779 3.3626926 3.3598468 3.3569372
3.3543549 3.3516974 3.3490405 3.3464894 3.3437884 3.3413565 3.339106 3.3369324
3.3351455 3.333071 3.331033 3.32926 3.3271875 3.3252416 3.323351 3.3216894
3.3202221 3.3186815 3.317212 3.3158278 3.314482 3.313144 3.311736 3.310393
3.3090417 3.3076215 3.3063352 3.3051484 3.3041263 3.302821 3.302084 3.3010814
3.3001587 3.2992442 3.2982101 3.297347 3.2965064 3.295814 3.2952344 3.294288
3.2937067 3.2927241 3.291852 3.2911773 3.290441 3.289778 3.2890103 3.2882566
3.2878854 3.2873323 3.2864842 3.285692 3.2851183 3.2842429 3.2837183 3.2832227
00000000: 411e 6e42 0e91 6c42 fd87 5f42 858a 5142
00000010: 0b3b 4742 7abc 3b42 fade 3642 976d 3042
00000020: 1ccd 2842 e465 2142 cf44 1a42 5286 1242
00000030: fd5f 0c42 7213 0742 ac52 0242 7f54 fa41
00000040: e909 f041 5e6b e641 1901 dd41 8186 d441
00000050: c004 cc41 1bbd c341 da67 bc41 442e b441
00000060: 2ce2 ac41 eff3 a541 806b 9e41 4398 9741
00000070: 0a09 9141 3ade 8a41 e5d3 8441 3546 7f41
00000080: dd97 7541 43c8 6d41 37cf 6441 cae3 5b41
00000090: 340f 5541 313d 4e41 eb40 4941 182d 4441
000000a0: a2ee 3f41 d4c5 3a41 33e5 3541 8805 3141
000000b0: f610 2d41 5c9f 2941 b5b0 2441 6269 2041
000000c0: 238a 1c41 79da 1841 9c14 1641 9564 1341
000000d0: 4746 1041 0149 0d41 59d2 0a41 6424 0841
000000e0: ba57 0541 5b31 0341 f13f 0141 dad8 fd40
000000f0: abf8 f840 e38b f540 3b30 f140 0823 ed40
00000100: c908 e940 d9cf e440 c4bb e140 9a9c de40
00000110: bcc4 db40 c98b d840 783e d540 961f d240
00000120: 3b8f cf40 2a01 cd40 a088 ca40 58d1 c740
00000130: 0451 c540 bdee c240 f487 c040 285d be40
00000140: 213f bc40 852a ba40 bd16 b840 611e b640
00000150: 531f b440 7e39 b240 ce68 b040 e8b3 ae40
00000160: 65fe ac40 db66 ab40 9cae a940 de22 a840
00000170: ac9a a640 711e a540 b597 a340 1626 a240
00000180: 1ebf a040 6259 9f40 f508 9e40 9bb8 9c40
00000190: d578 9b40 ac3b 9a40 2603 9940 34d7 9740
000001a0: 42b5 9640 5090 9540 4375 9440 0363 9340
000001b0: 9656 9240 dd50 9140 3450 9040 cb54 8f40
000001c0: df66 8e40 b37b 8d40 518c 8c40 4ea7 8b40
000001d0: a8d0 8a40 29f9 8940 6b24 8940 ea53 8840
000001e0: d781 8740 54bc 8640 47fa 8540 b93d 8540
000001f0: 9880 8440 70cc 8340 c31c 8340 1c6a 8240
00000200: 93bc 8140 6016 8140 d472 8040 98ab 7f40
00000210: 2a72 7e40 4b46 7d40 7f23 7c40 220a 7b40
00000220: 6ff3 7940 aadf 7840 e4ce 7740 81bf 7640
00000230: b1b9 7540 35b8 7440 5bb7 7340 a8c5 7240
00000240: e1d8 7140 62ef 7040 ec07 7040 8f27 6f40
00000250: 0559 6e40 eb80 6d40 4fba 6c40 fde9 6b40
00000260: 9932 6b40 1568 6a40 83b4 6940 0f03 6940
00000270: 775c 6840 bdb4 6740 110e 6740 6074 6640
00000280: 0ec6 6540 6932 6540 4b96 6440 ddff 6340
00000290: 7a70 6340 e4da 6240 b44f 6240 3dc6 6140
000002a0: c73a 6140 4aaa 6040 bf2e 6040 7db2 5f40
000002b0: 6d31 5f40 82bf 5e40 d74e 5e40 eddd 5d40
000002c0: dc74 5d40 f00a 5d40 16af 5c40 6044 5c40
000002d0: 2ce9 5b40 dd91 5b40 4738 5b40 38d8 5a40
000002e0: dc83 5a40 6f30 5a40 f9de 5940 ec8f 5940
000002f0: 3b4d 5940 3d09 5940 09c8 5840 2d86 5840
00000300: 8e4b 5840 190f 5840 ded3 5740 529d 5740
00000310: 8b6a 5740 5b36 5740 bb07 5740 0fd8 5640
00000320: c0ad 5640 3682 5640 ae56 5640 e22c 5640
00000330: a100 5640 c9d8 5540 eab3 5540 4d90 5540
00000340: 0673 5540 0951 5540 a52f 5540 9912 5540
00000350: a4f0 5440 c2d0 5440 c8b1 5440 8f96 5440
00000360: 857e 5440 4765 5440 344d 5440 8636 5440
00000370: 7920 5440 8d0a 5440 7cf3 5340 7bdd 5340
00000380: 57c7 5340 12b0 5340 ff9a 5340 8d87 5340
00000390: ce76 5340 6b61 5340 5855 5340 eb44 5340
000003a0: cd35 5340 d126 5340 e015 5340 bc07 5340
000003b0: f6f9 5240 9eee 5240 1fe5 5240 9dd5 5240
000003c0: 17cc 5240 febb 5240 b4ad 5240 a6a2 5240
000003d0: 9696 5240 b98b 5240 257f 5240 cc72 5240
000003e0: b76c 5240 a763 5240 c255 5240 c748 5240
000003f0: 613f 5240 0931 5240 7128 5240 5220 5240

a_b f4 [500]
0.0 0.0 0.0 0.0 0.0 0.0 0.0 0.0
0.0 0.0 0.0 0.0 0.0 0.0 0.0 0.0
0.0 0.0 0.0 0.0 0.0 0.0 0.0 0.0
0.0 0.0 0.0 0.0 0.0 0.0 0.0 0.0
0.0 0.0 0.0 0.0 0.0 0.0 0.0 0.0
0.0 0.0 0.0 0.0 0.0 0.0 0.0 0.0
0.0 0.0 0.0 0.0 0.0 0.0 0.0 0.0
0.0 0.0 0.0 0.0 0.0 0.0 0.0 0.0
0.0 0.0 0.0 0.0 0.0 0.0 0.0 0.0
0.0 0.0 0.0 0.0 0.0 0.0 0.0 0.0
0.0 0.0 0.0 0.0 0.0 0.0 0.0 0.0
0.0 0.0 0.0 0.0 0.0 0.0 0.0 0.0
0.0 0.0 0.0 0.0 0.0 0.0 0.0 0.0
0.0 0.0 0.0 0.0 0.0 0.0 0.0 0.0
0.0 0.0 0.0 0.0 0.0 0.0 0.0 0.0
0.0 0.0 0.0 0.0 0.0 0.0 0.0 0.0
0.0 0.0 0.0 0.0 0.0 0.0 0.0 0.0
0.0 0.0 0.0 0.0 0.0 0.0 0.0 0.0
0.0 0.0 0.0 0.0 0.0 0.0 0.0 0.0
0.0 0.0 0.0 0.0 0.0 0.0 0.0 0.0
0.0 0.0 0.0 0.0 0.0 0.0 0.0 0.0
0.0 0.0 0.0 0.0 0.0 0.0 0.0 0.0
0.0 0.0 0.0 0.0 0.0 0.0 0.0 0.0
0.0 0.0 0.0 0.0 0.0 0.0 0.0 0.0
0.0 0.0 0.0 0.0 0.0 0.0 0.0 0.0
0.0 0.0 0.0 0.0 0.0 0.0 0.0 0.0
0.0 0.0 0.0 0.0 0.0 0.0 0.0 0.0
0.0 0.0 0.0 0.0 0.0 0.0 0.0 0.0
0.0 0.0 0.0 0.0 0.0 0.0 0.0 0.0
0.0 0.0 0.0 2.9849392e-05 2.9849392e-05 2.9849392e-05 2.9849392e-05 2.9849392e-05
2.9849392e-05 2.9849392e-05 2.9849392e-05 2.9849392e-05 2.9849392e-05 2.9849392e-05 2.9849392e-05 2.9849392e-05
2.9849392e-05 2.9849392e-05 2.9849392e-05 2.9849392e-05 2.9849392e-05 2.9849392e-05 2.9849392e-05 2.9849392e-05
00000000: 0000 0000 0000 0000 0000 0000 0000 0000
00000010: 0000 0000 0000 0000 0000 0000 0000 0000
00000020: 0000 0000 0000 0000 0000 0000 0000 0000
00000030: 0000 0000 0000 0000 0000 0000 0000 0000
00000040: 0000 0000 0000 0000 0000 0000 0000 0000
00000050: 0000 0000 0000 0000 0000 0000 0000 0000
00000060: 0000 0000 0000 0000 0000 0000 0000 0000
00000070: 0000 0000 0000 0000 0000 0000 0000 0000
00000080: 0000 0000 0000 0000 0000 0000 0000 0000
00000090: 0000 0000 0000 0000 0000 0000 0000 0000
000000a0: 0000 0000 0000 0000 0000 0000 0000 0000
000000b0: 0000 0000 0000 0000 0000 0000 0000 0000
000000c0: 0000 0000 0000 0000 0000 0000 0000 0000
000000d0: 0000 0000 0000 0000 0000 0000 0000 0000
000000e0: 0000 0000 0000 0000 0000 0000 0000 0000
000000f0: 0000 0000 0000 0000 0000 0000 0000 0000
00000100: 0000 0000 0000 0000 0000 0000 0000 0000
00000110: 0000 0000 0000 0000 0000 0000 0000 0000
00000120: 0000 0000 0000 0000 0000 0000 0000 0000
00000130: 0000 0000 0000 0000 0000 0000 0000 0000
00000140: 0000 0000 0000 0000 0000 0000 0000 0000
00000150: 0000 0000 0000 0000 0000 0000 0000 0000
00000160: 0000 0000 0000 0000 0000 0000 0000 0000
00000170: 0000 0000 0000 0000 0000 0000 0000 0000
00000180: 0000 0000 0000 0000 0000 0000 0000 0000
00000190: 0000 0000 0000 0000 0000 0000 0000 0000
000001a0: 0000 0000 0000 0000 0000 0000 0000 0000
000001b0: 0000 0000 0000 0000 0000 0000 0000 0000
000001c0: 0000 0000 0000 0000 0000 0000 0000 0000
000001d0: 0000 0000 0000 0000 0000 0000 0000 0000
000001e0: 0000 0000 0000 0000 0000 0000 0000 0000
000001f0: 0000 0000 0000 0000 0000 0000 0000 0000
00000200: 0000 0000 0000 0000 0000 0000 0000 0000
00000210: 0000 0000 0000 0000 0000 0000 0000 0000
00000220: 0000 0000 0000 0000 0000 0000 0000 0000
00000230: 0000 0000 0000 0000 0000 0000 0000 0000
00000240: 0000 0000 0000 0000 0000 0000 0000 0000
00000250: 0000 0000 0000 0000 0000 0000 0000 0000
00000260: 0000 0000 0000 0000 0000 0000 0000 0000
00000270: 0000 0000 0000 0000 0000 0000 0000 0000
00000280: 0000 0000 0000 0000 0000 0000 0000 0000
00000290: 0000 0000 0000 0000 0000 0000 0000 0000
000002a0: 0000 0000 0000 0000 0000 0000 0000 0000
000002b0: 0000 0000 0000 0000 0000 0000 0000 0000
000002c0: 0000 0000 0000 0000 0000 0000 0000 0000
000002d0: 0000 0000 0000 0000 0000 0000 0000 0000
000002e0: 0000 0000 0000 0000 0000 0000 0000 0000
000002f0: 0000 0000 0000 0000 0000 0000 0000 0000
00000300: 0000 0000 0000 0000 0000 0000 0000 0000
00000310: 0000 0000 0000 0000 0000 0000 0000 0000
00000320: 0000 0000 0000 0000 0000 0000 0000 0000
00000330: 0000 0000 0000 0000 0000 0000 0000 0000
00000340: 0000 0000 0000 0000 0000 0000 0000 0000
00000350: 0000 0000 0000 0000 0000 0000 0000 0000
00000360: 0000 0000 0000 0000 0000 0000 0000 0000
00000370: 0000 0000 0000 0000 0000 0000 0000 0000
00000380: 0000 0000 0000 0000 0000 0000 0000 0000
00000390: 0000 0000 0000 0000 0000 0000 0000 0000
000003a0: 0000 0000 0000 0000 0000 0000 1565 fa37
000003b0: 1565 fa37 1565 fa37 1565 fa37 1565 fa37
000003c0: 1565 fa37 1565 fa37 1565 fa37 1565 fa37
000003d0: 1565 fa37 1565 fa37 1565 fa37 1565 fa37
000003e0: 1565 fa37 1565 fa37 1565 fa37 1565 fa37
000003f0: 1565 fa37 1565 fa37 1565 fa37 1565 fa37

l_a f4 [500]
0.089432165 0.1334519 0.12446199 0.10872195 0.12622079 0.12200394 0.1482653 0.16758339
0.16345155 0.16616336 0.16672494 0.18786953 0.20095421 0.22731952 0.23349856 0.23388761
0.25469637 0.24573027 0.25120643 0.28498834 0.30857736 0.34216666 0.36489224 0.39234695
0.40817314 0.44393754 0.44048858 0.49612832 0.52784693 0.5577752 0.59874755 0.6528159
0.70624983 0.7591653 0.819375 0.88748604 0.952325 1.0023671 1.0600445 1.1208955
1.2005215 1.2603272 1.3285398 1.3709042 1.4624416 1.5194873 1.5677052 1.6493949
1.6949911 1.7362156 1.7953265 1.844765 1.8858728 1.9328345 1.9825578 2.0297196
2.0671697 2.1107774 2.1502452 2.176249 2.2125092 2.2372453 2.2845485 2.3183618
2.352728 2.3834977 2.4025881 2.4279485 2.4624054 2.4843383 2.5030713 2.5315437
2.5408971 2.5746946 2.5924037 2.6165144 2.629779 2.650591 2.6725414 2.6869903
2.7047646 2.7181258 2.7399008 2.7510076 2.7716184 2.7835941 2.7950454 2.8083346
2.823541 2.8355045 2.8535483 2.8658438 2.876708 2.8883328 2.897389 2.903972
2.9147758 2.9274476 2.9375024 2.9482453 2.9585886 2.9652574 2.972685 2.9853535
2.9911103 2.9984825 3.0043623 3.014389 3.0238316 3.032783 3.0358706 3.044707
3.0540388 3.056498 3.0647042 3.0666163 3.0766528 3.084088 3.0838997 3.091542
3.0952036 3.1001174 3.1081278 3.1105301 3.1135676 3.1207464 3.124848 3.126357
3.1341693 3.1380382 3.1417372 3.143129 3.1486905 3.1499443 3.155747 3.157663
3.1605158 3.1649349 3.1679592 3.170112 3.1744645 3.1773818 3.1772516 3.1824005
3.1858473 3.1857886 3.188621 3.1913543 3.1931896 3.1971533 3.1986895 3.2003121
3.202432 3.2041092 3.2076259 3.2075899 3.2104769 3.2116747 3.21431 3.2147582
3.2173014 3.219647 3.2199779 3.221453 3.2228446 3.2237465 3.2251205 3.2271922
3.2279727 3.2294502 3.2307708 3.2314055 3.2325768 3.2344334 3.2348266 3.2355819
3.2371287 3.2379825 3.2387707 3.2397473 3.2400784 3.2410412 3.2428265 3.2428455
3.2438595 3.2446933 3.244839 3.2452643 3.2462237 3.246291 3.2472117 3.247531
3.2480114 3.2482574 3.2488058 3.24918 3.2497234 3.2495742 3.2502208 3.2503662
3.2506843 3.25109 3.251467 3.2518132 3.2516654 3.2522442 3.252067 3.2526035
3.2531252 3.2529595 3.2530115 3.2531955 3.2535794 3.2533727 3.2533984 3.2542422
3.2538764 3.2539754 3.2541482 3.2542312 3.2543983 3.2543926 3.254852 3.2547557
3.254874 3.2551758 3.2552857 3.255409 3.2553399 3.25527 3.2556171 3.2557018
3.2557223 3.2557943 3.2559261 3.2559967 3.256056 3.2562633 3.25618 3.2563229
3.256461 3.256263 3.2564976 3.2565746 3.2565098 3.2565668 3.2566783 3.2566347
3.256739 3.2568338 3.2567744 3.2570121 3.2569618 3.2568417 3.2569592 3.257178
00000000: 3628 b73d 9da7 083e eee5 fe3d 9da9 de3d
00000010: 0640 013e 34dd f93d dcd2 173e fb9a 2b3e
00000020: d85f 273e ba26 2a3e f1b9 2a3e df60 403e
00000030: f1c6 4d3e 73c6 683e 3f1a 6f3e 3c80 6f3e
00000040: 9067 823e b7a0 7b3e 219e 803e fee9 913e
00000050: dafd 9d3e 7830 af3e 28d3 ba3e b3e1 c83e
00000060: 12fc d03e c84b e33e b887 e13e 8804 fe3e
00000070: fa20 073f 5bca 0e3f 8547 193f f11e 273f
00000080: cacc 343f a858 423f 8fc2 513f 4932 633f
00000090: 92cb 733f 914d 803f 8aaf 873f 8179 8f3f
000000a0: b0aa 993f 6752 a13f 980d aa3f ca79 af3f
000000b0: 4931 bb3f 8f7e c23f 90aa c83f 5f1f d33f
000000c0: 78f5 d83f 503c de3f 42cd e53f 4221 ec3f
000000d0: 4864 f13f 1f67 f73f 74c4 fd3f ede6 0140
000000e0: 824c 0440 fa16 0740 9e9d 0940 aa47 0b40
000000f0: c099 0d40 072f 0f40 0b36 1240 0a60 1440
00000100: 1893 1640 3a8b 1840 01c4 1940 8263 1b40
00000110: 0d98 1d40 66ff 1e40 5232 2040 d004 2240
00000120: 0f9e 2240 ccc7 2440 f1e9 2540 f974 2740
00000130: 4d4e 2840 48a3 2940 eb0a 2b40 a6f7 2b40
00000140: dd1a 2d40 c6f5 2d40 895a 2f40 8210 3040
00000150: 3262 3140 6826 3240 06e2 3240 c1bb 3340
00000160: e5b4 3440 e878 3540 89a0 3640 fc69 3740
00000170: fc1b 3840 72da 3840 d26e 3940 adda 3940
00000180: b08b 3a40 4d5b 3b40 0a00 3c40 0db0 3c40
00000190: 8459 3d40 c7c6 3d40 7940 3e40 0810 3f40
000001a0: 5a6e 3f40 23e7 3f40 7947 4040 c0eb 4040
000001b0: 7586 4140 1e19 4240 b44b 4240 7bdc 4240
000001c0: 5f75 4340 aa9d 4340 1d24 4440 7143 4440
000001d0: e1e7 4440 b361 4540 9d5e 4540 d3db 4540
000001e0: d117 4640 5368 4640 91eb 4640 ed12 4740
000001f0: b144 4740 4fba 4740 82fd 4740 3c16 4840
00000200: 3b96 4840 9ed5 4840 3912 4940 0729 4940
00000210: 2584 4940 b098 4940 c2f7 4940 2717 4a40
00000220: e445 4a40 4b8e 4a40 d8bf 4a40 1de3 4a40
00000230: 6d2a 4b40 395a 4b40 1758 4b40 73ac 4b40
00000240: ece4 4b40 f6e3 4b40 5e12 4c40 263f 4c40
00000250: 385d 4c40 299e 4c40 54b7 4c40 ead1 4c40
00000260: a5f4 4c40 2010 4d40 be49 4d40 2749 4d40
00000270: 7478 4d40 148c 4d40 41b7 4d40 99be 4d40
00000280: 44e8 4d40 b20e 4e40 1e14 4e40 492c 4e40
00000290: 1643 4e40 dd51 4e40 6068 4e40 518a 4e40
000002a0: 1b97 4e40 50af 4e40 f3c4 4e40 59cf 4e40
000002b0: 8ae2 4e40 f500 4f40 6607 4f40 c613 4f40
000002c0: 1e2d 4f40 1b3b 4f40 0548 4f40 0558 4f40
000002d0: 725d 4f40 386d 4f40 788a 4f40 c88a 4f40
000002e0: 659b 4f40 0ea9 4f40 71ab 4f40 69b2 4f40
000002f0: 21c2 4f40 3bc3 4f40 51d2 4f40 8cd7 4f40
00000300: 6bdf 4f40 73e3 4f40 6fec 4f40 91f2 4f40
00000310: 78fb 4f40 06f9 4f40 9e03 5040 0006 5040
00000320: 360b 5040 dc11 5040 0918 5040 b51d 5040
00000330: 491b 5040 c524 5040 de21 5040 a82a 5040
00000340: 3433 5040 7d30 5040 5731 5040 5b34 5040
00000350: a53a 5040 4237 5040 ae37 5040 8145 5040
00000360: 833f 5040 2241 5040 f743 5040 5345 5040
00000370: 1048 5040 f847 5040 7f4f 5040 eb4d 5040
00000380: db4f 5040 cd54 5040 9a56 5040 9f58 5040
00000390: 7d57 5040 5856 5040 085c 5040 6b5d 5040
000003a0: c15d 5040 ef5e 5040 1861 5040 4062 5040
000003b0: 3963 5040 9e66 5040 4165 5040 9867 5040
000003c0: db69 5040 9d66 5040 756a 5040 b86b 5040
000003d0: a86a 5040 976b 5040 6b6d 5040 b46c 5040
000003e0: 696e 5040 f76f 5040 fe6e 5040 e372 5040
000003f0: 1072 5040 1870 5040 0572 5040 9b75 5040

a_a f4 [500]
0.9852 0.9754 0.9766 0.9812 0.9754 0.97819996 0.96779996 0.96
0.9594 0.9554 0.956 0.95159996 0.9456 0.94 0.9324 0.9356
0.93039995 0.9292 0.9334 0.92539996 0.9248 0.913 0.90959996 0.9094
0.9174 0.9086 0.9176 0.91279995 0.91239995 0.9144 0.9062 0.9054
0.9088 0.908 0.8986 0.8908 0.8868 0.88979995 0.88259995 0.88159996
0.86859995 0.87 0.8576 0.86579996 0.8336 0.8332 0.83019996 0.8052
0.7992 0.8066 0.79679996 0.79179996 0.77379996 0.7718 0.7542 0.7488
0.74 0.7272 0.7204 0.72319996 0.7166 0.715 0.6878 0.67899996
0.66359997 0.6432 0.6544 0.6508 0.6322 0.62079996 0.6146 0.6064
0.62479997 0.6006 0.6006 0.58599997 0.5826 0.5782 0.5618 0.56299996
0.5478 0.5518 0.532 0.5342 0.5202 0.516 0.5128 0.5162
0.501 0.4928 0.47759998 0.47919998 0.4696 0.4716 0.4574 0.46559998
0.4628 0.44419998 0.43739998 0.42679998 0.4244 0.4274 0.4274 0.4034
0.4164 0.40379998 0.3998 0.38819999 0.38819999 0.37359998 0.3748 0.3744
0.3572 0.3566 0.3488 0.35259998 0.3444 0.3286 0.3478 0.3308
0.33159998 0.3434 0.3196 0.31419998 0.3268 0.3184 0.30359998 0.2916
0.30159998 0.294 0.2854 0.30159998 0.2796 0.2784 0.275 0.2794
0.2766 0.2582 0.26819998 0.26639998 0.247 0.2446 0.2672 0.2426
0.23359999 0.2482 0.2348 0.2324 0.24059999 0.22039999 0.22399999 0.22559999
0.2146 0.2112 0.1988 0.20899999 0.2008 0.20459999 0.1936 0.20179999
0.19119999 0.18599999 0.174 0.182 0.1828 0.1778 0.17559999 0.177
0.1652 0.15779999 0.1576 0.161 0.15179999 0.1512 0.148 0.13939999
0.1338 0.1354 0.1326 0.121999994 0.1284 0.121 0.110999994 0.110999994
0.1152 0.105399996 0.1166 0.1048 0.106199995 0.1024 0.094 0.092
0.0928 0.091199994 0.0958 0.0876 0.0884 0.0896 0.089999996 0.081999995
0.0848 0.0876 0.0788 0.081999995 0.077599995 0.0748 0.0824 0.0858
0.076799996 0.0796 0.0874 0.081199996 0.078 0.0756 0.074999996 0.079799995
0.075399995 0.0778 0.076799996 0.0722 0.074999996 0.076799996 0.0692 0.074
0.0686 0.067 0.068399996 0.073 0.063599996 0.0718 0.066199996 0.0654
0.066599995 0.0638 0.066199996 0.0614 0.0654 0.0648 0.0638 0.06
0.0634 0.065799996 0.055999998 0.0578 0.0648 0.0632 0.0598 0.0646
0.0626 0.0556 0.056599997 0.0594 0.0614 0.0596 0.0556 0.0592
00000000: 1136 7c3f d0b3 793f 7502 7a3f ec2f 7b3f
00000010: d0b3 793f 506b 7a3f bdc1 773f 8fc2 753f
00000020: 3d9b 753f 1895 743f 6abc 743f 0e9c 733f
00000030: d712 723f d7a3 703f c4b1 6e3f 7b83 6f3f
00000040: b12e 6e3f 0de0 6d3f 4df3 6e3f 03e7 6c3f
00000050: b1bf 6c3f 5eba 693f 8bdb 683f 70ce 683f
00000060: bada 6a3f 029a 683f d5e7 6a3f 42ad 693f
00000070: 0b93 693f 1e16 6a3f b9fc 673f 4bc8 673f
00000080: 1ea7 683f b072 683f a60a 663f 780b 643f
00000090: 5305 633f eec9 633f 12f2 613f 89b0 613f
000000a0: 915c 5e3f 52b8 5e3f ac8b 5b3f 11a5 5d3f
000000b0: cf66 553f 984c 553f fc87 543f 9621 4e3f
000000c0: 5f98 4c3f 567d 4e3f 15fb 4b3f 67b3 4a3f
000000d0: c117 463f af94 453f 4013 413f 5bb1 3f3f
000000e0: a470 3d3f c729 3a3f 226c 383f a223 393f
000000f0: 1973 373f 3d0a 373f a913 303f f1d2 2d3f
00000100: b0e1 293f c1a8 243f c286 273f d49a 263f
00000110: dcd7 213f bfec 1e3f 6d56 1d3f 083d 1b3f
00000120: e4f2 1f3f ecc0 193f ecc0 193f 1804 163f
00000130: 4625 153f ea04 143f 20d2 0f3f c420 103f
00000140: 9f3c 0c3f c442 0d3f 2731 083f 55c1 083f
00000150: d42b 053f 9318 043f dc46 033f af25 043f
00000160: 8941 003f 4850 fc3e fc87 f43e b359 f53e
00000170: 696f f03e 8e75 f13e 5530 ea3e 1f63 ee3e
00000180: 1ff4 ec3e 2e6e e33e e4f2 df3e 8785 da3e
00000190: f54a d93e 2cd4 da3e 2cd4 da3e 728a ce3e
000001a0: 6132 d53e dfbe ce3e 96b2 cc3e 26c2 c63e
000001b0: 26c2 c63e 7f48 bf3e c9e5 bf3e 5bb1 bf3e
000001c0: ebe2 b63e 4694 b63e ea95 b23e fc87 b43e
000001d0: 3255 b03e 423e a83e d712 b23e 9e5e a93e
000001e0: 79c7 a93e 20d2 af3e 9ca2 a33e d2de a03e
000001f0: 5452 a73e 5305 a33e 7571 9b3e 984c 953e
00000200: 506b 9a3e 2b87 963e f31f 923e 506b 9a3e
00000210: bb27 8f3e 728a 8e3e cdcc 8c3e 840d 8f3e
00000220: 849e 8d3e ca32 843e 8251 893e 9465 883e
00000230: 91ed 7c3e 6c78 7a3e 70ce 883e 226c 783e
00000240: d634 6f3e 2428 7e3e 696f 703e 44fa 6d3e
00000250: d85f 763e 89b0 613e 4160 653e af03 673e
00000260: 1ac0 5b3e d044 583e 3a92 4b3e 1804 563e
00000270: 849e 4d3e a982 513e 143f 463e a8a4 4e3e
00000280: eec9 433e c876 3e3e 0e2d 323e 355e 3a3e
00000290: ec2f 3b3e 3411 363e 7cd0 333e 7d3f 353e
000002a0: 302a 293e 5296 213e e561 213e 2fdd 243e
000002b0: 7571 1b3e 2cd4 1a3e 508d 173e dfbe 0e3e
000002c0: de02 093e 4ca6 0a3e 4bc8 073e 22db f93d
000002d0: 4a7b 033e d9ce f73d f753 e33d f753 e33d
000002e0: faed eb3d f4db d73d fbcb ee3d 62a1 d63d
000002f0: 627f d93d 17b7 d13d 1283 c03d 7f6a bc3d
00000300: ed0d be3d 10c7 ba3d ca32 c43d a167 b33d
00000310: 0f0b b53d 3480 b73d eb51 b83d 9def a73d
00000320: 9fab ad3d a167 b33d e561 a13d 9def a73d
00000330: bfec 9e3d be30 993d 55c1 a83d e9b7 af3d
00000340: 5149 9d3d 5305 a33d c5fe b23d 2f4c a63d
00000350: 77be 9f3d 2cd4 9a3d 9999 993d 2e6e a33d
00000360: 506b 9a3d 9b55 9f3d 5149 9d3d 98dd 933d
00000370: 9999 993d 5149 9d3d bbb8 8d3d 508d 973d
00000380: 287e 8c3d 4c37 893d 4c15 8c3d 0681 953d
00000390: b740 823d e10b 933d dd93 873d 6ff0 853d
000003a0: 9465 883d 93a9 823d dd93 873d 917e 7b3d
000003b0: 6ff0 853d ddb5 843d 93a9 823d 8fc2 753d
000003c0: dcd7 813d 26c2 863d 4160 653d b1bf 6c3d
000003d0: ddb5 843d 006f 813d d8f0 743d 014d 843d
000003e0: 6e34 803d d3bc 633d 66d5 673d 6a4d 733d
000003f0: 917e 7b3d 211f 743d d3bc 633d b37b 723d

0_d f4 [500]
1.9281228 1.9396874 1.959445 1.9805418 2.000331 2.0193954 2.0379753 2.0557446
2.0730863 2.0902007 2.1074953 2.1252043 2.1431792 2.1614153 2.1807618 2.2014222
2.2246447 2.2507865 2.2792177 2.311073 2.3455195 2.381941 2.4228015 2.4674582
2.51716 2.5717611 2.6291783 2.690261 2.7562828 2.8265307 2.8999565 2.9761465
3.0537884 3.132297 3.2115636 3.2915392 3.3708746 3.4491196 3.5265088 3.6012578
3.6726873 3.7396631 3.803226 3.8630989 3.9186687 3.9705107 4.017903 4.061178
4.1004167 4.13574 4.1675982 4.1959944 4.2214894 4.244072 4.2639494 4.281098
4.2956057 4.3074684 4.3167114 4.323346 4.3277225 4.33006 4.330463 4.3289857
4.3258586 4.321095 4.3149996 4.3077235 4.299298 4.2898746 4.2793202 4.267758
4.25545 4.242525 4.228929 4.214707 4.1999393 4.184799 4.1692076 4.1533556
4.13713 4.1205487 4.1036015 4.086287 4.068449 4.0502796 4.0319424 4.0135226
3.9950347 3.9763188 3.9574564 3.9384139 3.9191983 3.8997245 3.8801875 3.8605075
3.8408406 3.8211892 3.801602 3.782055 3.7623816 3.7426121 3.7227952 3.702983
3.6831248 3.663199 3.6432376 3.6232524 3.6033254 3.583354 3.5633647 3.5434136
3.5235398 3.503704 3.4838736 3.4640796 3.4442935 3.424418 3.4044466 3.3845932
3.364834 3.3451693 3.3255444 3.3059254 3.286364 3.2667844 3.2472658 3.2278345
3.208417 3.1889904 3.1695843 3.1502223 3.130924 3.1116889 3.0924826 3.0733082
3.0541759 3.035041 3.015956 2.9969213 2.9779484 2.95901 2.9401515 2.921367
2.9026167 2.883931 2.8652966 2.846727 2.8282056 2.8097606 2.791366 2.7730439
2.7547762 2.736573 2.71844 2.7003586 2.6823015 2.6642659 2.6463056 2.6284373
2.6106246 2.5928648 2.5751543 2.557503 2.539898 2.5223644 2.5049264 2.4875627
2.4702585 2.453022 2.4358857 2.4188306 2.401824 2.3848894 2.3680167 2.3511965
2.3344305 2.3177443 2.3011258 2.2845984 2.2681673 2.2518377 2.2356029 2.2194493
2.20337 2.1873698 2.1714516 2.1556103 2.139846 2.1241746 2.1085865 2.0930676
2.0776193 2.0622828 2.0470414 2.03188 2.0168123 2.0018492 1.9869688 1.9721767
1.9574609 1.9428178 1.9282876 1.913859 1.8995081 1.8852601 1.8711296 1.8570942
1.8431345 1.8292646 1.8154554 1.8017302 1.7880901 1.7745395 1.761091 1.7477288
1.7344563 1.7212847 1.7082021 1.6952246 1.6823335 1.6695236 1.6567775 1.6441189
1.6315356 1.6190424 1.6066308 1.5943258 1.5821038 1.5699546 1.5578747 1.545888
1.5340065 1.5222152 1.5105004 1.4988624 1.4873165 1.4758602 1.4644711 1.4531453
1.4419048 1.4307472 1.4196601 1.4086592 1.39773 1.3869054 1.3761553 1.3654695
1.354879 1.3443558 1.3338898 1.3234963 1.3131837 1.302942 1.2927582 1.2826383
00000000: bacc f63f ad47 f83f 18cf fa3f 6582 fd3f
00000010: 6c05 0040 c63d 0140 306e 0240 5291 0340
00000020: 72ad 0440 d9c5 0540 34e1 0640 5903 0840
00000030: d929 0940 a154 0a40 9a91 0b40 1ae4 0c40
00000040: 9460 0e40 e30c 1040 b4de 1140 9fe8 1340
00000050: fe1c 1640 b971 1840 2e0f 1b40 d6ea 1d40
00000060: 2619 2140 bc97 2440 7544 2840 3c2d 2c40
00000070: f066 3040 e1e5 3440 e398 3940 2f79 3e40
00000080: 4571 4340 8e77 4840 428a 4d40 94a8 5240
00000090: 69bc 5740 60be 5c40 52b2 6140 027b 6640
000000a0: 4f0d 6b40 a456 6f40 0e68 7340 033d 7740
000000b0: 78cb 7a40 d91c 7e40 a992 8040 2cf5 8140
000000c0: 9d36 8340 fb57 8440 f75c 8540 9645 8640
000000d0: 7116 8740 70cf 8740 4672 8840 c1fe 8840
000000e0: 9a75 8940 c8d6 8940 8022 8a40 da58 8a40
000000f0: b47c 8a40 da8f 8a40 2793 8a40 0d87 8a40
00000100: 6f6d 8a40 6946 8a40 7a14 8a40 dfd8 8940
00000110: d993 8940 a746 8940 31f0 8840 7991 8840
00000120: a52c 8840 c4c2 8740 6353 8740 e1de 8640
00000130: e765 8640 e0e9 8540 266a 8540 4ae8 8440
00000140: 5e63 8440 89db 8340 b450 8340 ddc2 8240
00000150: bc30 8240 e49b 8140 ac05 8140 c76e 8040
00000160: a6ae 7f40 027c 7e40 f746 7d40 f90e 7c40
00000170: 25d4 7a40 1695 7940 fe54 7840 8e12 7740
00000180: 55d0 7540 5d8e 7440 724d 7340 300d 7240
00000190: dcca 7040 f586 6f40 4742 6e40 acfd 6c40
000001a0: 51b8 6b40 da71 6a40 ce2a 6940 5ee3 6740
000001b0: e29c 6640 ac55 6540 2b0e 6440 4ac7 6240
000001c0: ad81 6140 b03c 6040 c9f7 5e40 7bb3 5d40
000001d0: 4e6f 5c40 aa29 5b40 74e2 5940 2d9d 5840
000001e0: 7159 5740 4117 5640 b8d5 5440 4894 5340
000001f0: ca53 5240 ff12 5140 34d3 4f40 d794 4e40
00000200: b456 4d40 6b18 4c40 78da 4a40 3e9d 4940
00000210: 0f61 4840 e925 4740 3ceb 4540 15b1 4440
00000220: 9e77 4340 1d3e 4240 6c05 4140 8fcd 3f40
00000230: b596 3e40 6b60 3d40 712b 3c40 adf7 3a40
00000240: 79c4 3940 5392 3840 0561 3740 c630 3640
00000250: 5201 3540 1ed3 3340 bea5 3240 8d79 3140
00000260: 414e 3040 0324 2f40 ecfa 2d40 add2 2c40
00000270: d4aa 2b40 5583 2a40 125d 2940 5138 2840
00000280: 7914 2740 7ff1 2540 54cf 2440 21ae 2340
00000290: b08d 2240 6b6e 2140 b750 2040 3a34 1f40
000002a0: b718 1e40 50fe 1c40 8de5 1b40 1fce 1a40
000002b0: 7cb7 1940 07a2 1840 968d 1740 017a 1640
000002c0: 4f67 1540 ec55 1440 a545 1340 dc36 1240
000002d0: a729 1140 1c1e 1040 1e14 0f40 750b 0e40
000002e0: 0404 0d40 defd 0b40 10f9 0a40 85f5 0940
000002f0: 3df3 0840 7af2 0740 15f3 0640 d2f4 0540
00000300: b7f7 0440 71fc 0340 ba02 0340 520a 0240
00000310: 7413 0140 4c1e 0040 fe54 fe3f 4970 fc3f
00000320: 148e fa3f 41ae f83f 21d2 f63f 55f9 f43f
00000330: 1523 f33f 3450 f13f 2d81 ef3f 43b5 ed3f
00000340: d5eb eb3f 5825 ea3f d860 e83f 189f e63f
00000350: 23e0 e43f 1c24 e33f 6e6b e13f 94b5 df3f
00000360: aa02 de3f 0f53 dc3f 5ea6 da3f 1ffd d83f
00000370: b456 d73f f3b2 d53f 4911 d43f 7d72 d23f
00000380: 29d6 d03f c83c cf3f 14a6 cd3f de12 cc3f
00000390: 6182 ca3f 46f4 c83f 7068 c73f a8df c53f
000003a0: 535a c43f f3d7 c23f 1458 c13f b9da bf3f
000003b0: 6360 be3f fde8 bc3f ca73 bb3f aa00 ba3f
000003c0: 5690 b83f b922 b73f 6cb7 b53f f24e b43f
000003d0: d1e8 b23f 1e86 b13f db25 b03f b4c7 ae3f
000003e0: ad6c ad3f da13 ac3f e7bc aa3f 5468 a93f
000003f0: 6716 a83f cec6 a63f 1a79 a53f 7e2d a43f

0_o f4 [500]
-0.7386449 -0.7437956 -0.7520459 -0.7608875 -0.7693816 -0.7776098 -0.7858562 -0.7939127
-0.80156636 -0.80896807 -0.81621397 -0.82349676 -0.83079416 -0.8381067 -0.84558636 -0.8533499
-0.8618328 -0.87114155 -0.8810856 -0.89200974 -0.9038776 -0.9167182 -0.93101394 -0.94626236
-0.96290493 -0.9814198 -1.0010418 -1.0218219 -1.044089 -1.0677553 -1.0923207 -1.1178614
-1.1441102 -1.170851 -1.1980307 -1.2253745 -1.2526437 -1.2796565 -1.3062626 -1.3318784
-1.3563371 -1.3792653 -1.4010373 -1.4215486 -1.4405619 -1.4582393 -1.4743516 -1.4890434
-1.5023153 -1.5142145 -1.5249376 -1.5345381 -1.5431402 -1.5507534 -1.5574459 -1.5632102
-1.5680664 -1.5720084 -1.575013 -1.5771163 -1.5784507 -1.579104 -1.5790827 -1.5784047
-1.5771403 -1.5752822 -1.5729399 -1.5701814 -1.5670207 -1.5635072 -1.5596133 -1.5553641
-1.5508544 -1.5461365 -1.5411738 -1.5359836 -1.5305878 -1.5250416 -1.5193408 -1.5135658
-1.5076708 -1.501651 -1.495503 -1.4892188 -1.4827473 -1.476156 -1.4695057 -1.4628282
-1.4561329 -1.449368 -1.4425521 -1.4356706 -1.4287188 -1.4216695 -1.4146053 -1.4074919
-1.4003845 -1.3932823 -1.386202 -1.3791269 -1.3719937 -1.3648139 -1.3576171 -1.3504169
-1.343196 -1.3359467 -1.3286828 -1.3214076 -1.3141522 -1.3068811 -1.2996098 -1.2923543
-1.2851272 -1.2779061 -1.2706871 -1.263477 -1.256264 -1.249017 -1.2417355 -1.2344909
-1.227277 -1.2201031 -1.2129384 -1.2057709 -1.1986253 -1.1914663 -1.1843344 -1.1772267
-1.1701239 -1.1630102 -1.1558979 -1.1488079 -1.1417485 -1.1347165 -1.1276959 -1.1206814
-1.1136804 -1.1066759 -1.0996877 -1.0927136 -1.0857607 -1.0788212 -1.0719113 -1.065027
-1.0581613 -1.0513223 -1.0445081 -1.03772 -1.0309571 -1.0242226 -1.0175081 -1.0108212
-1.0041513 -0.9975 -0.99087155 -0.984255 -0.97764546 -0.9710455 -0.9644761 -0.9579451
-0.95143807 -0.9449519 -0.9384847 -0.9320439 -0.92561895 -0.91922283 -0.9128627 -0.9065302
-0.90021527 -0.8939239 -0.8876694 -0.88144475 -0.8752416 -0.8690648 -0.8629096 -0.8567707
-0.8506465 -0.84455156 -0.83848 -0.832443 -0.8264398 -0.8204791 -0.8145552 -0.8086634
-0.80280167 -0.7969687 -0.79116184 -0.78538185 -0.7796326 -0.77392066 -0.76823825 -0.76258016
-0.7569472 -0.75135654 -0.74579924 -0.74027336 -0.7347823 -0.72932994 -0.7239058 -0.71851474
-0.713149 -0.7078052 -0.7025049 -0.6972418 -0.6920096 -0.68681693 -0.6816685 -0.6765571
-0.671474 -0.666423 -0.66139084 -0.65639013 -0.65142125 -0.6464874 -0.6415921 -0.6367256
-0.63188964 -0.62709093 -0.62232643 -0.6176005 -0.61290795 -0.6082431 -0.60360056 -0.5989877
-0.59439933 -0.5898428 -0.58531606 -0.5808299 -0.576374 -0.5719432 -0.5675351 -0.56316453
-0.55883473 -0.5545378 -0.55026823 -0.5460246 -0.5418183 -0.53764534 -0.5334942 -0.5293657
-0.52526695 -0.52119863 -0.5171572 -0.5131493 -0.5091677 -0.5052253 -0.50131136 -0.49741825
-0.49356097 -0.48972595 -0.48591256 -0.4821279 -0.47837275 -0.4746421 -0.47093016 -0.46724126
00000000: d517 3dbf 6369 3ebf 1586 40bf 86c9 42bf
00000010: 31f6 44bf 7011 47bf df2d 49bf dd3d 4bbf
00000020: 7433 4dbf 8818 4fbf 66f3 50bf afd0 52bf
00000030: edae 54bf 298e 56bf 5978 58bf 2475 5abf
00000040: 13a1 5cbf 2203 5fbf d38e 61bf c05a 64bf
00000050: 8664 67bf 0bae 6abf ee56 6ebf 403e 72bf
00000060: f080 76bf 543e 7bbf 2322 80bf 0fcb 82bf
00000070: b5a4 85bf 35ac 88bf 2ad1 8bbf 1516 8fbf
00000080: 3472 92bf 72de 95bf 1259 99bf 12d9 9cbf
00000090: a156 a0bf c9cb a3bf 9d33 a7bf fe7a aabf
000000a0: 749c adbf c48b b0bf 3155 b3bf 4ef5 b5bf
000000b0: 5564 b8bf 96a7 babf 8eb7 bcbf f998 bebf
000000c0: de4b c0bf c8d1 c1bf 2831 c3bf bf6b c4bf
000000d0: 9e85 c5bf 167f c6bf 635a c7bf 4617 c8bf
000000e0: 66b6 c8bf 9237 c9bf 079a c9bf f2de c9bf
000000f0: ac0a cabf 1420 cabf 621f cabf 2a09 cabf
00000100: bcdf c9bf d9a2 c9bf 1856 c9bf b4fb c8bf
00000110: 2294 c8bf 0121 c8bf 69a1 c7bf 2c16 c7bf
00000120: 6682 c6bf cde7 c5bf 2f45 c5bf 1c9b c4bf
00000130: 4dea c3bf 9034 c3bf c279 c2bf 86bc c1bf
00000140: 5bfb c0bf 1a36 c0bf a46c bfbf b99e bebf
00000150: aaca bdbf aef2 bcbf c318 bcbf f43d bbbf
00000160: 9062 babf e484 b9bf 8ca5 b8bf 0ec4 b7bf
00000170: 42e0 b6bf 44f9 b5bf c911 b5bf b228 b4bf
00000180: cd3f b3bf 1357 b2bf 116f b1bf 3b87 b0bf
00000190: 7d9d afbf 39b2 aebf 66c6 adbf 76da acbf
000001a0: d9ed abbf 4d00 abbf 4712 aabf e223 a9bf
000001b0: 2436 a8bf e147 a7bf 9d59 a6bf de6b a5bf
000001c0: 0c7f a4bf 6d92 a3bf e0a5 a2bf 9db9 a1bf
000001d0: 42cd a0bf cadf 9fbf 30f1 9ebf cc03 9ebf
000001e0: 6a17 9dbf 572c 9cbf 9141 9bbf b356 9abf
000001f0: 8e6c 99bf f881 98bf 4598 97bf 5daf 96bf
00000200: 9fc6 95bf 85dd 94bf 76f4 93bf 230c 93bf
00000210: d124 92bf 643e 91bf 5758 90bf 7d72 8fbf
00000220: 148d 8ebf 8ea7 8dbf 91c2 8cbf 0ade 8bbf
00000230: 35fa 8abf d016 8abf 6434 89bf ce52 88bf
00000240: d471 87bf bb91 86bf 71b2 85bf 02d4 84bf
00000250: 67f6 83bf ba19 83bf b53d 82bf 9762 81bf
00000260: 0888 80bf 295c 7fbf c2a9 7dbf 23f8 7bbf
00000270: f946 7abf 7096 78bf e8e7 76bf e43b 75bf
00000280: 7291 73bf 5ee8 71bf 8940 70bf 6e9a 6ebf
00000290: 5df5 6cbf 3052 6bbf 5fb1 69bf 5d12 68bf
000002a0: 8274 66bf 32d8 64bf 4d3e 63bf 5da6 61bf
000002b0: d50f 60bf 087b 5ebf a5e7 5cbf 5355 5bbf
000002c0: f8c3 59bf 8834 58bf a0a6 56bf fc1a 55bf
000002d0: 8f91 53bf eb0a 52bf b186 50bf 9104 4fbf
000002e0: 6984 4dbf 2406 4cbf 9589 4abf c90e 49bf
000002f0: 0196 47bf aa1f 46bf 43ab 44bf 7438 43bf
00000300: 4bc7 41bf e758 40bf b3ec 3ebf 8e82 3dbf
00000310: b11a 3cbf 5eb5 3abf e451 39bf 95f0 37bf
00000320: ef90 36bf b932 35bf 5cd7 33bf 707e 32bf
00000330: 8b27 31bf 3cd3 2fbf d481 2ebf d932 2dbf
00000340: b8e5 2bbf b39a 2abf e950 29bf 2f09 28bf
00000350: 8bc3 26bf 3380 25bf 613f 24bf 7300 23bf
00000360: 85c3 21bf 0889 20bf c950 1fbf 111b 1ebf
00000370: 89e7 1cbf d2b5 1bbf 9185 1abf 4257 19bf
00000380: 8e2a 18bf f0ff 16bf 46d7 15bf 45b1 14bf
00000390: 3f8d 13bf df6a 12bf fb49 11bf 8d2b 10bf
000003a0: cb0f 0fbf 30f6 0dbf 61de 0cbf 45c8 0bbf
000003b0: 9bb4 0abf 20a3 09bf 1393 08bf 8384 07bf
000003c0: e577 06bf 466d 05bf 6a64 04bf c15d 03bf
000003d0: d058 02bf 7256 01bf f155 00bf 9bad febe
000003e0: 06b4 fcbe 5cbd fabe 88c9 f8be 78d9 f6be
000003f0: 46ed f4be 4a04 f3be c21d f1be 3f3a efbe

1 f4 [500]
0.2941341 0.2843676 0.27524406 0.2684183 0.26150048 0.25567445 0.24945201 0.24336463
0.23785062 0.2319496 0.22615457 0.22042154 0.21506733 0.20996262 0.20471951 0.19942181
0.19402134 0.18845645 0.18329199 0.17851311 0.1737371 0.1691787 0.1648419 0.16059889
0.15644525 0.1523921 0.14850022 0.14488518 0.14156108 0.13844365 0.1354834 0.13273443
0.13026308 0.12802728 0.12600768 0.12411228 0.12256498 0.120951444 0.11915768 0.11733038
0.11556217 0.11400654 0.11247234 0.111009404 0.10945777 0.10787399 0.10632926 0.10501685
0.10374399 0.1023975 0.10107637 0.09982663 0.09862467 0.09754633 0.09642765 0.0952779
0.09416998 0.09307242 0.0919789 0.09097073 0.090004824 0.08911809 0.08823954 0.08737273
0.086585164 0.08587372 0.08520146 0.08451114 0.08379885 0.083062336 0.08230972 0.08149489
0.08063687 0.07985995 0.07912794 0.078418255 0.077733055 0.07704211 0.07637296 0.075699866
0.075042985 0.07439088 0.07375454 0.073141225 0.072514266 0.07189399 0.0712891 0.07068396
0.07007736 0.06947102 0.06886068 0.068233415 0.067628846 0.067036256 0.06644152 0.06587488
0.06531553 0.06475806 0.064235605 0.06372476 0.06320946 0.06270105 0.062191337 0.061675668
0.06115577 0.06064047 0.06013886 0.059640735 0.059140693 0.058643363 0.058145277 0.057657335
0.057158783 0.05666833 0.056192752 0.05572217 0.055254333 0.054789104 0.054328118 0.053877115
0.0534316 0.05298286 0.05253077 0.052084863 0.051641196 0.05119947 0.05076183 0.05032683
0.049892392 0.04945766 0.049032394 0.048618466 0.048207592 0.047803618 0.04739929 0.046998736
0.04660047 0.04620708 0.0458214 0.045437973 0.04505775 0.044676997 0.044297654 0.043920737
0.043545272 0.043170795 0.04280132 0.04243742 0.04207838 0.04172201 0.041369393 0.041019406
0.04067217 0.0403269 0.039984792 0.03964611 0.0393095 0.038976822 0.038646262 0.038318582
0.037994247 0.037672587 0.037355337 0.037041917 0.03673223 0.036426045 0.036121864 0.035820637
0.035522252 0.035226762 0.034934368 0.034644816 0.0343575 0.034072157 0.03378911 0.033508465
0.033230253 0.032954082 0.032680213 0.03240809 0.032138515 0.031871267 0.031606287 0.031344008
0.03108434 0.030827716 0.03057336 0.03032105 0.030070918 0.029822955 0.029577434 0.029334411
0.029093876 0.02885516 0.02861768 0.028382996 0.028150138 0.027918955 0.02768974 0.027462764
0.027238088 0.027015822 0.026795976 0.026577732 0.026362013 0.026147842 0.025935406 0.025724992
0.025516413 0.025309501 0.025104413 0.024900928 0.024698734 0.024498185 0.024299078 0.024101596
0.023906006 0.023712102 0.023520181 0.02332982 0.023140827 0.02295363 0.022768151 0.022583935
0.022400906 0.022219576 0.02203934 0.021860845 0.021683916 0.021508822 0.02133525 0.021163343
0.020993102 0.020824073 0.020655897 0.020489093 0.020323578 0.020159641 0.019996637 0.019834833
0.019674234 0.01951504 0.019357756 0.019201668 0.019047067 0.018893983 0.018741839 0.018591171
0.018441427 0.018292224 0.01814392 0.017997168 0.017851623 0.017707307 0.017564366 0.017422901
00000000: bf98 963e a198 913e caec 8c3e 206e 893e
00000010: 64e3 853e c3e7 823e 5970 7f3e 9434 793e
00000020: 1d8f 733e 3284 6d3e 1095 673e 2fb6 613e
00000030: 9c3a 5c3e 7100 573e fea1 513e 3b35 4c3e
00000040: 88ad 463e bafa 403e e5b0 3b3e 24cc 363e
00000050: 23e8 313e 2e3d 2d3e 51cc 283e 0974 243e
00000060: 2f33 203e ad0c 1c3e 7110 183e c85c 143e
00000070: 63f5 103e 2cc4 0d3e 29bc 0a3e 89eb 073e
00000080: af63 053e 9519 033e 2808 013e 942e fe3d
00000090: 5903 fb3d 64b5 f73d f108 f43d e94a f03d
000000a0: dcab ec3d 437c e93d e657 e63d e658 e33d
000000b0: 652b e03d 0aed dc3d 28c3 d93d 1313 d73d
000000c0: bb77 d43d c8b5 d13d 2101 cf3d e771 cc3d
000000d0: bbfb c93d 5fc6 c73d dc7b c53d 0f21 c33d
000000e0: 31dc c03d c19c be3d 6f5f bc3d dd4e ba3d
000000f0: 7354 b83d 8c83 b63d efb6 b43d 79f0 b23d
00000100: 9053 b13d 90de af3d 1a7e ae3d 2d14 ad3d
00000110: bb9e ab3d 961c aa3d 0092 a83d cbe6 a63d
00000120: f124 a53d 9d8d a33d d40d a23d c099 a03d
00000130: 8232 9f3d 41c8 9d3d 6d69 9c3d 8808 9b3d
00000140: 23b0 993d 3f5a 983d 9f0c 973d 11cb 953d
00000150: 5c82 943d 283d 933d 0500 923d c1c2 903d
00000160: b884 8f3d d246 8e3d d406 8d3d f6bd 8b3d
00000170: fe80 8a3d 4e4a 893d 7e12 883d 69e9 863d
00000180: 26c4 853d e09f 843d f58d 833d 2182 823d
00000190: f673 813d 6869 803d 58bc 7e3d a09f 7c3d
000001a0: 797e 7a3d 2462 783d 2a54 763d d849 743d
000001b0: 833d 723d 0634 703d be29 6e3d 192a 6c3d
000001c0: 541f 6a3d 0d1d 683d 5f2a 663d ee3c 643d
000001d0: 5e52 623d 8a6a 603d 2987 5e3d 40ae 5c3d
000001e0: 18db 5a3d 8e04 593d 812a 573d f056 553d
000001f0: b885 533d 89b6 513d a3eb 4f3d 8223 4e3d
00000200: f75b 4c3d 1e94 4a3d 31d6 483d 2824 473d
00000210: 5375 453d bacd 433d c225 423d bf81 403d
00000220: 22e0 3e3d a343 3d3d 38af 3b3d 2b1d 3a3d
00000230: 7a8e 383d 3aff 363d 7571 353d 3be6 333d
00000240: 875c 323d dcd3 303d 7050 2f3d dcd2 2d3d
00000250: 615a 2c3d b3e4 2a3d f472 293d f703 283d
00000260: dd97 263d d22d 253d 18c7 233d f663 223d
00000270: 0003 213d 29a6 1f3d 8b4b 1e3d f2f3 1c3d
00000280: db9f 1b3d 924e 1a3d e901 193d 44b9 173d
00000290: 8974 163d 7a33 153d 85f4 133d a9b8 123d
000002a0: c87f 113d f049 103d 5717 0f3d b9e7 0d3d
000002b0: 73ba 0c3d 3f8f 0b3d 7366 0a3d 2c40 093d
000002c0: 721c 083d dcfa 063d b0db 053d 58be 043d
000002d0: ada3 033d 728b 023d 9875 013d 9362 003d
000002e0: 96a4 fe3c 688a fc3c fc74 fa3c da63 f83c
000002f0: 4957 f63c 454f f43c 604c f23c b84e f03c
00000300: 4856 ee3c a861 ec3c a06f ea3c 7583 e83c
00000310: 1e9b e63c 4bb6 e43c 98d5 e23c 97f9 e03c
00000320: 6922 df3c 4950 dd3c 3c83 db3c 8bb9 d93c
00000330: 26f5 d73c 0034 d63c 7d76 d43c 38bd d23c
00000340: cc07 d13c df55 cf3c c5a7 cd3c 08fd cb3c
00000350: 0055 ca3c 6bb0 c83c dc0e c73c b670 c53c
00000360: 87d6 c33c e23f c23c 65ad c03c 2e1e bf3c
00000370: d591 bd3c 4009 bc3c 4684 ba3c f201 b93c
00000380: 1b82 b73c d405 b63c d98b b43c 8415 b33c
00000390: 78a2 b13c 4533 b03c 43c7 ae3c bf5e ad3c
000003a0: baf9 ab3c 3f97 aa3c 8e36 a93c bed8 a73c
000003b0: a27d a63c d525 a53c fdcf a33c a97c a23c
000003c0: dc2b a13c 01de 9f3c 2894 9e3c d14c 9d3c
000003d0: 9808 9c3c 8ec7 9a3c 7c88 993c 834c 983c
000003e0: 7a12 973c 93d9 953c 8fa2 943c cc6e 933c
000003f0: 913d 923c ea0e 913c 25e3 8f3c 79ba 8e3c

2 f4 [500]
1.725096 1.5981729 1.4825224 1.413932 1.3351699 1.273271 1.2053497 1.1434709
1.0939069 1.0333391 0.9688897 0.904462 0.85102457 0.8034161 0.7524849 0.70030504
0.64786875 0.5952035 0.55082035 0.51282537 0.4733767 0.43370774 0.39386836 0.35603657
0.31903052 0.28327 0.25243926 0.2231072 0.19431809 0.16680114 0.14508218 0.12513642
0.107642174 0.09180854 0.07946777 0.072666235 0.06872323 0.06594491 0.064368665 0.063089125
0.062620714 0.06283906 0.06369238 0.06384163 0.06285667 0.06149315 0.060321715 0.059410956
0.05843596 0.057823256 0.056721922 0.055117875 0.05346923 0.05184857 0.050103366 0.048878238
0.047828633 0.046814106 0.04560669 0.0442308 0.042756457 0.04148148 0.04041071 0.03934787
0.038358893 0.037537754 0.036754817 0.035858326 0.034918413 0.034078434 0.033479948 0.032837845
0.032224093 0.03172267 0.031143658 0.030486148 0.029929908 0.029303227 0.0288621 0.028363407
0.027868932 0.027412973 0.026914783 0.026461588 0.026119089 0.0257618 0.025401996 0.024997566
0.024551712 0.024134044 0.023799535 0.023442117 0.023087323 0.022778824 0.022491088 0.022203183
0.021899961 0.021599816 0.021295765 0.020974161 0.020700725 0.020483453 0.020250686 0.020000638
0.019737855 0.019469887 0.019195661 0.018954363 0.018716633 0.018465197 0.018211948 0.017976051
0.017740257 0.017519293 0.017301332 0.017088806 0.01687467 0.016667992 0.016470598 0.01627383
0.01607568 0.01587517 0.015672248 0.015469906 0.015268974 0.01507855 0.014907611 0.014729963
0.014552717 0.01437209 0.01418971 0.014007104 0.013832842 0.013672622 0.013517537 0.013358219
0.013199228 0.013040047 0.012884551 0.0127314115 0.01257826 0.012425089 0.012273154 0.012123866
0.0119787445 0.0118366685 0.011695048 0.0115537355 0.011413606 0.011272988 0.011134352 0.010998535
0.010866173 0.010736567 0.010608427 0.010481458 0.010359624 0.010240158 0.010120627 0.01000068
0.00988161 0.009761866 0.009643032 0.009525288 0.009409012 0.00929446 0.00918075 0.009069021
0.008959281 0.008852631 0.008746383 0.008640128 0.008534563 0.008429593 0.008326431 0.008224215
0.008123139 0.0080230925 0.007924384 0.007827158 0.007731519 0.0076372838 0.007544328 0.007452735
0.007362968 0.0072743986 0.007186945 0.007100383 0.00701471 0.006930183 0.006846493 0.006763327
0.006681147 0.006599394 0.0065190583 0.0064398176 0.006361343 0.006283355 0.0062062326 0.0061306176
0.0060561816 0.0059832195 0.005911377 0.0058401222 0.0057697217 0.0056994758 0.005630207 0.0055621993
0.0054954565 0.0054296055 0.005364281 0.0053001232 0.0052364673 0.0051729837 0.005110124 0.005048293
0.004987413 0.0049270494 0.0048675328 0.004808176 0.004749674 0.0046922117 0.0046355072 0.0045794626
0.0045243907 0.004470266 0.004416976 0.004364224 0.0043116673 0.004259267 0.0042073256 0.0041560275
0.0041056247 0.004055632 0.0040060747 0.003957125 0.0039086784 0.0038613172 0.0038144372 0.0037679954
0.0037219631 0.0036767786 0.0036321413 0.0035882562 0.0035448559 0.0035022767 0.0034599632 0.0034180535
0.0033765186 0.0033353257 0.003294539 0.00325433 0.0032146715 0.003175472 0.0031367743 0.0030984965
00000000: f2cf dc3f ee90 cc3f 4bc3 bd3f b9fb b43f
00000010: d9e6 aa3f 8bfa a23f e648 9a3f 415d 923f
00000020: 2405 8c3f 7544 843f 2809 783f d28a 673f
00000030: bfdc 593f adac 4d3f daa2 403f 3147 333f
00000040: bada 253f 425f 183f 9002 0d3f 8648 033f
00000050: 6e5e f23e f10e de3e 1da9 c93e 6d4a b63e
00000060: f857 a33e c408 913e b83f 813e 3776 643e
00000070: 52fb 463e ebcd 2a3e 6c90 143e c323 003e
00000080: 8073 dc3d 1e06 bc3d 00c0 a23d 09d2 943d
00000090: c4be 8c3d 200e 873d b8d3 833d df34 813d
000000a0: 4a3f 803d c4b1 803d 2771 823d 67bf 823d
000000b0: ffba 803d 3ee0 7b3d e713 773d e758 733d
000000c0: 8c5a 6f3d 14d8 6c3d 3f55 683d 48c3 613d
000000d0: 8d02 5b3d 2b5f 543d 3039 4d3d 8c34 483d
000000e0: f5e7 433d 26c0 3f3d 15ce 3a3d 5b2b 353d
000000f0: 6521 2f3d 7ce8 293d b385 253d 3b2b 213d
00000100: 371e 1d3d 30c1 193d 388c 163d 2ee0 123d
00000110: 9c06 0f3d d495 0b3d 4522 093d fa80 063d
00000120: 69fd 033d a1ef 013d fc20 ff3c 16be f93c
00000130: 912f f53c 520d f03c 3670 ec3c 605a e83c
00000140: 634d e43c 2c91 e03c 647c dc3c f9c5 d83c
00000150: b3f7 d53c 690a d33c d917 d03c b2c7 cc3c
00000160: ac20 c93c c2b4 c53c 3ef7 c23c af09 c03c
00000170: a021 bd3c a89a ba3c 3b3f b83c 73e3 b53c
00000180: 8c67 b33c 19f2 b03c 7574 ae3c 01d2 ab3c
00000190: 9194 a93c eacc a73c c4e4 a53c 61d8 a33c
000001a0: 48b1 a13c 507f 9f3c 3840 9d3c 2e46 9b3c
000001b0: a053 993c 5344 973c 3931 953c 8342 933c
000001c0: 0454 913c 9f84 8f3c 86bb 8d3c d3fd 8b3c
000001d0: bf3c 8a3c 508b 883c 59ed 863c b250 853c
000001e0: 25b1 833c a50c 823c 1663 803c 7d75 7d3c
000001f0: b82a 7a3c 060c 773c 0d3f 743c f155 713c
00000200: 856e 6e3c ea78 6b3c f57b 683c 0d7e 653c
00000210: 25a3 623c 2203 603c a978 5d3c 6edc 5a3c
00000220: 9341 583c eca5 553c b919 533c 6997 503c
00000230: 0c15 4e3c 9a92 4b3c 5715 493c 2ea3 463c
00000240: 7f42 443c 96ee 413c 969c 3f3c e14b 3d3c
00000250: 2200 3b3c 57b2 383c db6c 363c 3333 343c
00000260: 0808 323c 6de8 2f3c f8ce 2d3c 6cba 2b3c
00000270: 6abb 293c 56c6 273c fcd0 253c e4d9 233c
00000280: 7ae6 213c 3cf0 1f3c cffd 1d3c f40f 1c3c
00000290: 4228 1a3c ca47 183c db6a 163c 3b96 143c
000002a0: f3c9 123c a00a 113c fd4c 0f3c 538f 0d3c
000002b0: 8dd4 0b3c 471c 0a3c 956b 083c dcbe 063c
000002c0: ea16 053c 4a73 033c 47d5 013c 7b3d 003c
000002d0: af58 fd3b 2e42 fa3b 6936 f73b 1336 f43b
000002e0: 0d45 f13b 145e ee3b 7780 eb3b 54aa e83b
000002f0: a7db e53b 9716 e33b 8c58 e03b e69e dd3b
00000300: 86ed da3b bb3f d83b d39d d53b 1b05 d33b
00000310: d072 d03b 9ae4 cd3b a75d cb3b 59e3 c83b
00000320: ef72 c63b e20e c43b 39b4 c13b 7f5e bf3b
00000330: ef0f bd3b abc2 ba3b 997d b83b 1c43 b63b
00000340: 3b13 b43b d5ea b13b dac6 af3b a8ac ad3b
00000350: ac96 ab3b 2282 a93b d472 a73b 276c a53b
00000360: 746d a33b 1673 a13b d37f 9f3b e78d 9d3b
00000370: 27a3 9b3b 20c1 993b 74e5 973b 510f 963b
00000380: 5741 943b 4f7b 923b 48bc 903b c401 8f3b
00000390: e348 8d3b 5291 8b3b 9bdd 893b 492f 883b
000003a0: 7a88 863b 1be5 843b 6445 833b c5aa 813b
000003b0: 5f14 803b 270e 7d3b a3fb 793b 79f0 763b
000003c0: 2eec 733b 1cf6 703b 3809 6e3b f328 6b3b
000003d0: d050 683b 7486 653b 8dc0 623b 6c01 603b
000003e0: 9548 5d3b 7b95 5a3b 31e9 573b 9946 553b
000003f0: 3dad 523b 941b 503b 5792 4d3b 2510 4b3b
